Models/autoencoder_balanced.pth (torch, 5763 bytes, 8 tensors)

encoder.net.0.weight f4 [32, 4]
000000 9a e6 74 3e e4 6b ea bd 0f 25 b9 be d5 e1 47 3f
       0.23916093 -0.1144636 -0.36161086 0.7807897
000010 85 20 c5 3d ae ab 29 be 6d ae be be 35 70 17 3f
       0.09625343 -0.16569397 -0.3724245 0.5915559
000020 9b 50 58 3e ec 0d 07 3e 7e 8b 02 3f b0 a9 e1 bd
       0.21124499 0.13188905 0.509941 -0.110186934
000030 d1 4a cf be 2e ab 02 3f 10 94 12 bf 08 49 64 be
       -0.40486768 0.5104245 -0.57257175 -0.22293484
000040 28 12 dd 3d 7c d6 7f 3f 4a f0 c3 be df aa af be
       0.10794479 0.9993665 -0.38269264 -0.34310052
000050 08 4b c3 3e 50 a1 48 be 64 96 a7 bd 4f 27 54 3f
       0.38143182 -0.19592786 -0.081829816 0.8287248
000060 76 0d 1e 3d 42 e5 53 3e 3a 88 fc bd af 1b 85 3e
       0.038587056 0.20692924 -0.12330671 0.25997683
000070 2b 1b b1 3d fa 9d 0f 3e b2 42 46 bd 51 e8 bc 3d
       0.0864776 0.14025107 -0.04840345 0.09223998
000080 80 46 24 3c 42 dc 88 3f fc de 87 3e 53 34 da be
       0.010026574 1.0692217 0.2653731 -0.42618045
000090 8f 70 40 be bf e5 26 be 30 ce 13 3f 6f bb 82 bf
       -0.18792938 -0.16298579 0.5773649 -1.021345
0000a0 cc 85 6c bd f0 86 18 bf fb 48 28 bf 72 9e 2a 3f
       -0.057744786 -0.595809 -0.6573636 0.6664802
0000b0 17 2f 41 3e 76 d6 02 bf e9 62 eb be cd 42 80 be
       0.1886562 -0.5110849 -0.459739 -0.25050965
0000c0 bd 64 20 be f0 89 d4 3c 52 4c 5a bd b6 b7 13 be
       -0.15663429 0.02594468 -0.05329544 -0.14425549
0000d0 9a 9b ef 3d fc 67 61 be 8f e5 b6 be a7 05 2d 3f
       0.116996005 -0.22012323 -0.35722014 0.6758675
0000e0 58 a9 0d bd fe 40 b2 be 3a c8 72 be 6d c0 c8 3e
       -0.034585327 -0.3481521 -0.23709193 0.3920931
0000f0 e9 95 02 bc 40 3d 79 3f a4 44 86 be 39 4c 8c 3e
       -0.007970312 0.97359085 -0.26224244 0.27401903
000100 b8 bb c7 be b3 3c af 3e 96 d2 e2 3d 42 98 fe be
       -0.39010406 0.34225997 0.11075322 -0.49725538
000110 b8 6c 35 3c 38 19 8c 3f 5c 1f 23 3d 97 83 9e be
       0.011073284 1.0945196 0.03982483 -0.3095977
000120 ff 75 b3 bc 7c 59 b4 bf 15 ea 18 3d a8 76 1b be
       -0.02190685 -1.4089808 0.037332613 -0.15181983
000130 10 db 54 3e ab 10 76 bf 16 b5 ac bf 76 9c 77 bd
       0.2078669 -0.96119183 -1.3492763 -0.060451947
000140 a0 9b 9a 3e c5 06 13 be 68 06 22 3f 3f 7b bf 3d
       0.30196857 -0.14358051 0.63291025 0.09349679
000150 fa 34 d7 be 3c 21 32 3f 1d 63 c2 be 17 6f 01 bf
       -0.42032605 0.6958196 -0.37966242 -0.50560135
000160 67 7f 0b bd e9 c7 b2 be 6f a1 dc 3e e3 e6 5d be
       -0.034057047 -0.34918144 0.43091914 -0.21670108
000170 c8 26 0a be 95 79 0e 3f 39 3a 94 3e 60 3d a5 3d
       -0.13491356 0.5565427 0.2895067 0.08068347
000180 c0 b0 d2 bb 51 5c 83 bf 2a 3e ac be 72 d0 16 3f
       -0.0064297616 -1.0262548 -0.33641177 0.5891181
000190 50 fd 81 bc 69 7d 5e 3f ac f3 fb 3d 3d 2c b0 be
       -0.01586786 0.8691011 0.12302336 -0.3440875
0001a0 54 a0 e1 3b 7f 04 6c 3f dd 22 49 3d 12 58 8d be
       0.0068855677 0.9219436 0.049105514 -0.27606255
0001b0 c2 a1 84 bc 79 18 30 bf 60 77 8f bf d5 27 e1 3b
       -0.016190413 -0.6878734 -1.1208305 0.0068712034
0001c0 61 9b 91 3d 31 f4 9f 3e 35 90 23 be 4f 74 a8 3e
       0.07109714 0.3124099 -0.1597298 0.32901236
0001d0 a8 21 10 be 38 1d 8f 3e e0 02 00 3f fe b6 06 bf
       -0.14075339 0.2795198 0.50004387 -0.52622974
0001e0 c4 90 04 3e cd d8 a3 3d cb 6f c6 3e 01 ca 60 3d
       0.12945849 0.08000336 0.38757166 0.054880146
0001f0 ed 7c 62 3e 12 ce 71 be cb d0 1d be f7 32 20 3f
       0.22117968 -0.23613766 -0.1541168 0.62577766

encoder.net.0.bias f4 [32]
000000 12 cd e4 be 02 80 13 bf 06 ba 6e 3e 32 73 27 bf
       -0.44687706 -0.576172 0.2331315 -0.6541015
000010 8e 4f c2 bd b7 d4 f8 3e 69 12 2f 3e e8 90 73 bf
       -0.0948783 0.4859979 0.17096867 -0.95142984
000020 6b dd 41 3e 0c 5f 38 3f 5e 2e ed 3d d5 46 49 bf
       0.1893212 0.7202003 0.115811095 -0.78623706
000030 65 22 ff be 82 ee 25 bf 1b e8 58 3f 7f a0 01 be
       -0.49830928 -0.6481706 0.84729165 -0.1265888
000040 a7 2d d4 3e 31 c0 fe 3c 56 4a 0c bf fc 80 6c bf
       0.4144108 0.031097503 -0.5480093 -0.92384315
000050 26 55 a5 bd 08 fe e6 bd 58 ce 9a 3e 07 28 0a 3f
       -0.080728814 -0.11278921 0.30235553 0.53967327
000060 2c e8 db 3c 86 41 98 3e 38 86 81 3c 0e 4e 68 bf
       0.026844107 0.2973749 0.01581107 -0.907441
000070 01 44 88 bf 28 a1 ce ba a2 5b 22 bf 6b a7 14 be
       -1.0645753 -0.0015764581 -0.6342107 -0.1451699

encoder.net.2.weight f4 [2, 32]
000000 ea 91 d4 be 56 15 86 3f 98 8f f5 bd 69 dd f0 3e
       -0.41517574 1.0475261 -0.11990279 0.47043923
000010 06 9c 08 bf 83 3a 9f be 61 f2 29 be 7d 83 15 bd
       -0.5336307 -0.31099328 -0.16596366 -0.03650235
000020 33 ea 12 3f 00 8c 3d bf 13 f3 63 be 54 05 e0 bd
       0.5738861 -0.7404175 -0.22260694 -0.10938516
000030 98 76 a9 bc e2 1a a3 3e 05 e5 16 3f f1 a0 dc be
       -0.020686433 0.31856447 0.58943206 -0.4309154
000040 27 2e 18 3f 6f 4f ce 3e c5 0d 73 3f ce b0 50 be
       0.5944542 0.40294978 0.94942886 -0.20379946
000050 9b 70 5d be 31 c3 82 3e 7d ef e8 3d 85 98 36 be
       -0.21624987 0.25539544 0.11373804 -0.17831619
000060 25 3b 2b bf 23 5a 0e 3f 6f 2a 89 3d f3 78 94 3e
       -0.6688712 0.5560629 0.06697547 0.28998527
000070 fa 7d bd be a3 63 dd 3e 98 bc 59 be 4a ef a8 be
       -0.37010175 0.4324008 -0.21263349 -0.32995063
000080 f1 de d3 3c 0d 88 3d bf f8 50 25 be 97 c7 96 bc
       0.025863143 -0.7403572 -0.16144168 -0.018405719
000090 ce a2 43 3f c8 55 12 bb af f6 30 bc b1 9f 8f bd
       0.76420295 -0.0022328962 -0.010801001 -0.070128806
0000a0 f6 5b 39 bf 02 d9 28 3f 07 f6 ca 3e 9e 70 24 3f
       -0.72405946 0.6595613 0.3964083 0.6423434
0000b0 e9 db c6 3d d7 01 c8 be 9b 79 ef be 01 78 2b 3f
       0.09709913 -0.39063904 -0.46772465 0.66979986
0000c0 81 e5 ae 3d 21 3c 35 bf 4f 1b 5f bf b4 d7 b9 3f
       0.08539868 -0.70794874 -0.87151045 1.4518952
0000d0 d4 6e 34 be 69 5d 6d 3d e2 37 7f be f7 32 d4 3d
       -0.17620403 0.05795041 -0.24923661 0.10361283
0000e0 cb 67 3c 3f 4d b6 2e bf 81 f1 24 bf 91 48 e6 bf
       0.73595876 -0.6824692 -0.64431006 -1.7990896
0000f0 67 f3 0b be 0e af 21 be d4 7c ea bd 15 fd 5e 3d
       -0.1366707 -0.15789434 -0.1144959 0.054440577

encoder.net.2.bias f4 [2]
000000 d5 c5 1a 3e a1 7e 0b be
       0.1511453 -0.13622524

decoder.net.0.weight f4 [32, 2]
000000 6b 9a 12 bf 5e 64 86 3f 5e aa da ba 8c b9 47 be
       -0.57266873 1.049938 -0.0016682853 -0.19504374
000010 78 4d db 3e bc 37 61 3e 87 1f 17 bf 2b 16 89 3f
       0.4283254 0.21993917 -0.5903248 1.070989
000020 c8 9e 04 bf c0 99 2e 3e 25 7c 91 be a9 da 0d bf
       -0.5180478 0.17050838 -0.28415027 -0.55411774
000030 f7 38 0c bf 40 e6 99 bd 3e fe e7 be 55 5c 17 be
       -0.5477442 -0.0751462 -0.4531116 -0.14781316
000040 45 29 2a 3f 5d 1b bf 3e 68 24 d5 bc ef 47 cd 3f
       0.6646922 0.37325564 -0.026018336 1.6037577
000050 f9 f9 14 be 57 02 4f be 4c 52 2e bf 63 82 9c 3f
       -0.14548482 -0.20215736 -0.68094325 1.2227291
000060 3e 3d 0f bf f7 f9 cd bd ce 42 24 bf 47 24 16 3e
       -0.55952823 -0.10057443 -0.64164436 0.14662276
000070 e4 33 e7 3d 27 7d ac 3f d1 27 9c bb 73 c2 85 3e
       0.11289194 1.3475693 -0.0047654887 0.26124915
000080 5b f6 d7 3e 94 9e 0a bf 46 e0 2c bf 8e 62 ca 3e
       0.42180142 -0.5414822 -0.67529714 0.39528316
000090 5e 31 91 be c7 68 fb bd 16 2f 90 3f 12 6b 8d 3d
       -0.28357977 -0.12275844 1.126437 0.06905188
0000a0 e0 b6 2d 3d e7 ef d9 3f ac 56 1a 3f b9 1f d8 3e
       0.04241073 1.7026337 0.602885 0.42211702
0000b0 62 8b a1 be 8f da c1 be 9e b3 33 be a0 f0 2b be
       -0.31551653 -0.3786206 -0.17548987 -0.1679101
0000c0 3e 8d 8c 3e a8 71 3d bf 85 dc 62 bf 65 a7 bd 3f
       0.2745151 -0.7400155 -0.88617736 1.481671
0000d0 a8 e6 6b 3f 74 0e 27 3e ed 7e 8e 3e 4e f2 5f 3f
       0.9214883 0.16314107 0.27831212 0.874791
0000e0 4e 17 fb 3e 59 4a 06 3f 97 17 09 3f 3e 84 ec be
       0.49041218 0.52457196 0.5355162 -0.46194643
0000f0 9a 7f 89 3f fe aa a9 be 25 35 e6 3e ac 27 af 3e
       1.0742066 -0.3313827 0.4496242 0.34209955

decoder.net.0.bias f4 [32]
000000 7f 25 1e 3d 73 0e cf 3d 76 4a 6c 3f f6 5e 1e 3d
       0.038609978 0.10110178 0.9230112 0.03866478
000010 80 aa 9b 3c 6b 4c 48 bd d7 28 8f 3d b8 9e 11 3f
       0.0190022 -0.048901003 0.069902115 0.5688281
000020 0a c6 f4 be 27 fb 33 bf 23 34 85 bf 33 df 88 3d
       -0.47807342 -0.70305103 -1.0406536 0.06683197
000030 fe a1 a5 3e 12 1c 44 be ca e6 e3 bd 56 15 1d 3f
       0.32350153 -0.19151333 -0.11128004 0.6136068
000040 e1 ed a0 3d af 61 ab 3e ba f5 92 bf 59 0c 75 be
       0.07857872 0.33472964 -1.148124 -0.23930492
000050 d9 b6 2d bf b9 ce 8f bd 9f c6 ab 3e af 5d 17 3e
       -0.6785713 -0.07021851 0.33549973 0.14781831
000060 27 24 6d bf bc 23 26 3f 77 9e 67 3e 5c a0 11 bf
       -0.9263329 0.64898276 0.22619043 -0.56885314
000070 62 fc b4 be 54 74 2b 3f c1 27 f7 be 9d 56 ea 3e
       -0.35348803 0.6697438 -0.48272517 0.45769206

decoder.net.2.weight f4 [4, 32]
000000 a6 d3 70 be 79 5f 90 3e b8 d3 95 be 0a 98 fe 3c
       -0.23518237 0.2819784 -0.2926309 0.031078357
000010 b7 fb a0 3e fe 79 be 3e 3b 24 74 3e 80 a2 95 3e
       0.31442043 0.37202448 0.23841946 0.2922554
000020 04 1e 21 3e 9a f6 c3 3f 96 01 0e bf 9f 7c 3a 3c
       0.15734106 1.5309632 -0.5547117 0.011382251
000030 d8 aa b9 3d ab 70 94 3e 21 68 2f bf 86 a4 e0 3d
       0.09065789 0.2899221 -0.68518263 0.1096888
000040 80 4b 98 3c c9 dc ca 3d ca 51 54 be 33 05 b7 be
       0.018590689 0.09905393 -0.20734325 -0.35746154
000050 17 ae ba 3f 06 e5 82 be ee 83 94 3d fb 54 74 3e
       1.4584378 -0.25565356 0.07251726 0.23860542
000060 70 97 1c 3d 2e 80 c3 be 86 89 05 bf 1f b9 12 c0
       0.03823036 -0.3818373 -0.5216297 -2.292549
000070 c9 23 a1 bd 21 9b 0e be c2 5f e2 3e c7 51 6e 3d
       -0.078681536 -0.13926364 0.44213682 0.058183458
000080 09 28 25 3f 47 62 8d 3e 66 a0 90 3e 7c 1c 56 3f
       0.64514214 0.27614042 0.28247374 0.83637214
000090 bd 48 1e 3c ec bd 84 3e c7 42 0d 3e 07 31 73 3e
       0.009660897 0.2592615 0.13795005 0.23749171
0000a0 06 27 9b 3d 54 28 9f 3d 0b 3a 74 3d 4b 08 9d 3d
       0.075758025 0.07771364 0.059625667 0.076675974
0000b0 f3 0c 1e 3e a3 79 ba be 0b 60 78 be c3 db b5 be
       0.15434627 -0.36420926 -0.24255387 -0.35519227
0000c0 9a 3e ad 3e 02 40 00 bf 31 46 5a 3d 97 f5 d9 3e
       0.33836824 -0.5009767 0.053289596 0.42570183
0000d0 b2 c2 04 bf 1c a3 bf bd a4 9e 8f 3d 5e f9 0a 3e
       -0.5185958 -0.093572825 0.0701268 0.13571689
0000e0 83 66 d6 3e 78 ce 1b bf 8c 49 af 3e bf 71 56 3f
       0.41875085 -0.6086192 0.342358 0.8376731
0000f0 3d ce d3 be 76 79 9d be e8 b4 e4 be 56 56 f0 bd
       -0.41368285 -0.3075673 -0.4466927 -0.11735217
000100 df ae 56 bf 34 1d 19 3e 9f 55 20 bf 4a fc 94 bf
       -0.8386058 0.14952546 -0.6263065 -1.1639493
000110 0a 0a f8 3d 8b 46 d1 3d af c9 93 3d c2 06 b7 3d
       0.1211129 0.10218533 0.072162025 0.08936836
000120 3c 4a a0 be 4e d6 bb 3f b5 12 13 3e c8 e9 89 bf
       -0.31306636 1.4674776 0.14362605 -1.0774469
000130 39 e3 49 3e a9 d3 6e 3e 23 ec 1c 3f 77 f0 84 be
       0.19715585 0.2332293 0.61297816 -0.2596471
000140 67 21 01 3e bd d3 43 3f 5f 37 a6 bd 00 58 16 bf
       0.12610398 0.7649496 -0.0811603 -0.5872803
000150 81 67 18 bf c8 94 1f be 14 11 6b 3e 48 52 1b 3e
       -0.59532934 -0.155841 0.22955734 0.15168107
000160 28 bb 6b be e8 f0 3d 3f 03 a8 13 be 64 92 5d bf
       -0.23020613 0.7419572 -0.1441956 -0.865515
000170 28 c9 1f bf 27 53 e1 3e 45 22 ef 3e dd e5 9e 3d
       -0.62416315 0.44008753 0.46705833 0.07758687
000180 3b 7b 78 3f 72 68 bb 3d da ea 61 3e c9 cc 3d 3f
       0.97063035 0.09150781 0.22062245 0.741406
000190 d2 80 64 3e 65 72 58 3d a4 4b c0 3e 2e 84 c5 3e
       0.22314766 0.05284347 0.3755771 0.38577408
0001a0 cb 04 dc 3e 5d 2c d0 bf 63 59 04 3e 25 79 90 3f
       0.42972407 -1.6263539 0.12924723 1.128697
0001b0 e0 7c aa 3e 82 b3 84 3e 25 82 04 3d e0 a2 64 be
       0.33298397 0.25918204 0.032350678 -0.22327757
0001c0 95 4a d0 bd f3 85 79 be e4 0c f8 bd 70 9d 07 3d
       -0.101704754 -0.24367504 -0.12111834 0.03310913
0001d0 42 b7 c4 be 4b 22 9d be 5b bd 80 3e 03 58 88 3e
       -0.38421065 -0.30690226 0.25144467 0.26629648
0001e0 2c 8a 93 3e dc d0 86 bf e6 cf 93 3d d0 70 d1 3f
       0.28816354 -1.0532489 0.07217388 1.6362553
0001f0 be 2c b8 bd b5 8c 17 be 79 03 68 be 5e 72 d3 be
       -0.08992909 -0.14799769 -0.22657575 -0.41298193

decoder.net.2.bias f4 [4]
000000 6b b5 8f 3e 5c fe 29 be 01 49 97 bd dc 4d 02 3d
       0.28068098 -0.16600937 -0.07386971 0.031812534
