Models/molecular_autoencoder.pth (torch, 5777 bytes, 8 tensors)

encoder.net.0.weight f4 [32, 4]
-0.33238697 0.14248355 -0.3161389 -0.22508733 -0.30202505 0.3802837 -0.06496021 -0.24862993
-0.406298 0.22478518 0.03871824 0.22993772 0.29864645 -1.7942905 -0.7483892 0.9379824
-0.16277473 1.3003381 -0.27259353 -0.71541387 -0.28212094 -0.38348547 -0.42813185 0.67634916
0.29233342 -0.25496185 0.30259448 -0.7370451 0.106749326 0.2117854 -0.32660964 0.41180184
0.1360658 -0.29414332 -0.034425877 0.1208671 0.08221037 -0.2616004 0.29164472 -0.42821234
0.2699163 -0.0028864674 0.16242205 0.06069119 -0.009470692 -0.14592147 -0.0961599 -0.2243178
-0.49374247 0.6830522 0.20238285 -0.5191099 0.03971543 -0.018918205 -0.15145153 0.46882826
-0.12285109 0.99449295 -0.08126954 -0.6337323 -0.24074988 -0.045552522 0.15036583 0.056965765
0.30350047 -1.597134 -0.6911786 0.83934265 -0.38909584 0.35077104 0.29763183 -0.4797837
-0.15389873 -0.21884638 -0.1797944 0.67115754 -0.11934974 0.9490646 -0.10087993 -0.57616514
-0.008607083 0.40421653 0.279428 -0.8785063 -0.071874596 -0.053074095 0.18866827 -0.38592088
-0.019767374 -0.0038176705 0.03875783 -0.13906881 0.34860033 -0.60238844 0.17701429 -0.3806684
-0.13035728 0.99663615 -0.11639126 -0.57483315 -0.23007101 0.054300103 0.0041413773 0.10028565
0.4502849 -2.7853916 -1.0724766 1.3464218 0.12591691 -0.003535123 0.25022495 0.25471023
0.27834228 -1.6415352 -0.6713436 0.8463328 0.34867474 -0.4047005 0.13255802 0.23272635
0.20260108 -0.1279763 -0.83527946 0.39799675 0.0768123 0.41269553 0.03198397 -0.15002327
00000000: a02e aabe 35e7 113e f5dc a1be 4b7d 66be
00000010: 07a3 9abe 8cb4 c23e dc09 85bd d898 7ebe
00000020: 4b06 d0be 162e 663e 0497 1e3d cb74 6b3e
00000030: 30e8 983e 50ab e5bf 6f96 3fbf 9d1f 703f
00000040: 6bae 26be 7b71 a63f 6191 8bbe 5d25 37bf
00000050: 2872 90be 3558 c4be 1934 dbbe 3825 2d3f
00000060: baac 953e 5c8a 82be aaed 9a3e fdae 3cbf
00000070: 649f da3d 46de 583e 6139 a7be b1d7 d23e
00000080: d554 0b3e f499 96be 2602 0dbd 2c89 f73d
00000090: e95d a83d 7df0 85be 7552 953e a63e dbbe
000000a0: 7832 8a3e e32a 3dbb f751 263e 5397 783d
000000b0: f62a 1bbc 706c 15be 7bef c4bd 91b3 65be
000000c0: d0cb fcbe 82dc 2e3f 733d 4f3e 63e4 04bf
000000d0: a6ac 223d 5afa 9abc 1c16 1bbe 420a f03e
000000e0: 5a99 fbbd 1797 7e3f a570 a6bd 483c 22bf
000000f0: 2387 76be 4895 3abd 80f9 193e ef54 693d
00000100: 6a64 9b3e e36e ccbf 15f1 30bf 29df 563f
00000110: 9237 c7be 4398 b33e 3363 983e 36a6 f5be
00000120: a197 1dbe 4419 60be 061c 38be fbd0 2b3f
00000130: a36d f4bd e6f5 723f 239a cebd 8f7f 13bf
00000140: b904 0dbc 78f5 ce3e 3011 8f3e cae5 60bf
00000150: fd32 93bd 3964 59bd 4132 413e 6c97 c5be
00000160: 30ef a1bc e231 7abb 88c0 1e3d 0e68 0ebe
00000170: be7b b23e 2136 1abf 3c43 353e f8e6 c2be
00000180: 617c 05be 8c23 7f3f 8a5e eebd 4428 13bf
00000190: bc97 6bbe c969 5e3d 64b4 873b 9062 cd3d
000001a0: be8b e63e db43 32c0 ea46 89bf 8d57 ac3f
000001b0: 5df0 003e 86ad 67bb 7c1d 803e 6169 823e
000001c0: e182 8e3e d31d d2bf 2ddd 2bbf 44a9 583f
000001d0: 7f85 b23e e734 cfbe 4abd 073e d14f 6e3e
000001e0: a876 4f3e 380c 03be e0d4 55bf 3bc6 cb3e
000001f0: c44f 9d3d d44c d33e a001 033d b39f 19be

encoder.net.0.bias f4 [32]
1.0595163 -0.62910956 -0.6880199 -0.42923498 -0.7956898 -0.6319294 0.23507474 0.6126161
0.44601536 0.53486305 -0.49884903 0.5293567 -0.2566225 0.16014361 -0.54157275 -0.53530276
-0.38483733 -0.35262063 -0.4168454 -0.5128567 -0.049687378 -1.282047 0.43554416 0.34374982
-0.5190516 -0.505112 -0.77409977 -0.93080664 -0.38543653 -0.8524971 -0.84283674 0.2059728
00000000: 3b9e 873f 530d 21bf 1222 30bf b0c4 dbbe
00000010: 54b2 4bbf 20c6 21bf 6fb7 703e 69d4 1c3f
00000020: 205c e43e c9ec 083f 2469 ffbe ec83 073f
00000030: 0664 83be b0fc 233e 83a4 0abf 9a09 09bf
00000040: 6609 c5be b18a b4be c36c d5be 944a 03bf
00000050: fe84 4bbd 1e1a a4bf a5ff de3e faff af3e
00000060: 91e0 04bf 054f 01bf 672b 46bf 5849 6ebf
00000070: f057 c5be 403d 5abf 26c4 57bf 89ea 523e

encoder.net.2.weight f4 [2, 32]
-0.38443545 -0.6263463 0.22690251 -1.1797426 -0.081646286 -0.32440066 -0.06686204 0.14239767
-0.14984968 0.17653672 0.33854192 -0.2051061 -0.010545087 0.15264958 -0.0827575 0.087614305
-0.9538414 -0.077892385 -0.06847751 0.2581673 -0.006110186 0.1372609 -0.048089825 0.01770577
0.0032927503 0.04052192 1.9975648 0.33057347 -1.0956968 0.14663807 0.20441212 0.22710638
-0.2350472 -0.9459701 -0.08369594 1.9744637 2.5753474 0.25090596 0.2375259 -0.1912601
-0.11061379 0.11973697 0.04713773 -0.043908358 0.10471187 0.14538984 -0.85467553 -0.008206427
1.6515687 -0.16844149 -0.11161846 -1.2196934 -0.14916942 0.08419111 -0.031035472 -0.15649827
-1.3693898 0.00044929743 -3.4873147 0.17601022 2.0635023 0.19101495 -0.20692258 -0.025680665
00000000: b9d4 c4be 3b58 20bf 2259 683e ce01 97bf
00000010: 2b36 a7bd d817 a6be f7ee 88bd b2d0 113e
00000020: 3272 19be 0bc6 343e 5e55 ad3e 5507 52be
00000030: 4dc5 2cbc 2c50 1c3e c47c a9bd 216f b33d
00000040: f32e 74bf 0b86 9fbd f03d 8cbd 812e 843e
00000050: f537 c8bb 1f8e 0c3e d6f9 44bd b10b 913c
00000060: 2fcb 573b 50fa 253d 34b0 ff3f ed40 a93e
00000070: cb3f 8cbf 4a28 163e 6951 513e 938e 683e
00000080: 37b0 70be 192b 72bf c768 abbd 3abb fc3f
00000090: 7ed2 2440 bf76 803e fd39 733e b0d9 43be
000000a0: 7c89 e2bd a838 f53d 7e13 413d 40d9 33bd
000000b0: 2d73 d63d 13e1 143e 04cc 5abf 4074 06bc
000000c0: 9a66 d33f ed7b 2cbe 3898 e4bd ea1e 9cbf
000000d0: debf 18be 646c ac3d 1a3e febc 1541 20be
000000e0: 2a48 afbf ae8f eb39 2a30 5fc0 063c 343e
000000f0: 6c10 0440 6c99 433e 83e3 53be 4260 d2bc

encoder.net.2.bias f4 [2]
0.22436507 0.07641221
00000000: f5bf 653e 017e 9c3d

decoder.net.0.weight f4 [32, 2]
0.09229435 0.5184423 -0.31055942 2.0355759 -0.114857 0.31667727 0.30176544 -1.3140932
0.8929706 -0.10809832 0.54374063 0.60738385 -1.436424 0.17265859 0.23585792 0.010080954
-1.2684425 -0.38071144 -1.0517082 -0.64428943 1.0405632 -1.3194307 0.32584593 -1.6809618
-1.0192753 1.9439093 0.30095524 0.7713945 0.5538194 1.3201046 -0.49496314 -0.97634315
0.28756672 0.1408446 -0.17969766 -1.3441877 -0.12995462 -0.042866617 0.6742115 0.29622126
-0.09293369 -0.1381806 -0.07353513 -1.1415066 -0.46649194 -0.827938 0.30695945 0.8655769
0.5122458 -0.15115644 1.0859593 -0.3725552 1.0430834 -1.9587517 0.32445747 -0.6168072
0.31218112 0.35985005 1.3775103 -1.3239816 -0.39778647 -0.5187175 0.058331303 1.6401478
00000000: d204 bd3d a2b8 043f a501 9fbe e046 0240
00000010: 263a ebbd 8623 a23e 0081 9a3e 3534 a8bf
00000020: b999 643f a762 ddbd 9632 0b3f 827d 1b3f
00000030: bedc b7bf 6acd 303e bd84 713e 962a 253c
00000040: 535c a2bf 9cec c2be 609e 86bf 27f0 24bf
00000050: 2d31 853f 1be3 a8bf 47d5 a63e c229 d7bf
00000060: 9d77 82bf 05d2 f83f ce16 9a3e 1c7a 453f
00000070: 1cc7 0d3f 30f9 a83f cf6b fdbe a0f1 79bf
00000080: f23b 933e 9139 103e aa02 38be 580e acbf
00000090: d312 05be e894 2fbd 2099 2c3f 50aa 973e
000000a0: 0554 bebd 377f 0dbe 9699 96bd e31c 92bf
000000b0: 08d8 eebe bff3 53bf ca29 9d3e 7396 5d3f
000000c0: 8a22 033f c1c8 1abe b700 8b3f 8ebf bebe
000000d0: c283 853f 60b8 fabf 4a1f a63e 14e7 1dbf
000000e0: 34d6 9f3e 443e b83e 4252 b03f 3b78 a9bf
000000f0: abaa cbbe acca 04bf ceec 6e3d 5df0 d13f

decoder.net.0.bias f4 [32]
-0.5538535 0.8332629 0.6795461 0.10701569 0.1865076 0.6522288 -0.36767736 -0.6100348
0.30461547 0.62289983 0.2951659 -0.6016047 0.053421564 0.5211281 1.1588008 -0.40383384
-1.3067 -0.48647738 -0.3268445 -0.25949195 -0.6535524 -0.029147545 0.5387175 0.61964923
-0.77019286 0.37764698 0.005291476 -0.56737113 0.36005262 0.9492561 0.04549221 0.8264278
00000000: 58c9 0dbf b850 553f bcf6 2d3f 0b2b db3d
00000010: d9fb 3e3e 77f8 263f 3540 bcbe 3e2b 1cbf
00000020: 8ff6 9b3e 5d76 1f3f fc1f 973e c402 1abf
00000030: 92d0 5a3d a768 053f 9653 943f 4fc3 cebe
00000040: f241 a7bf 9013 f9be 2a58 a7be 21dc 84be
00000050: 364f 27bf d5c6 eebc 64e9 093f 55a1 1e3f
00000060: 5c2b 45bf f25a c13e 1e64 ad3b 3c3f 11bf
00000070: d158 b83e 7302 733f 0a56 3a3d c690 533f

decoder.net.2.weight f4 [4, 32]
-0.13751969 0.11866673 0.1483429 -0.1487323 1.0216279 0.94136995 -0.95253795 -0.1348522
0.15722342 -0.93255305 -0.0063252086 -0.9962444 -0.17997167 -0.71909714 0.23986277 -0.79163486
-0.3551861 1.2032963 0.16239405 0.8489798 -0.049927365 0.67824703 0.62793636 -0.42521387
-0.7134764 0.9354397 1.0753146 0.4675817 0.66808844 -1.4648917 -0.67476624 0.3027237
-0.27706966 -0.41866365 -0.3378162 1.0513316 -0.0022683018 -0.08428487 0.23833674 0.002439738
-0.5774093 0.6235001 1.3640513 -0.05572523 0.36357307 0.4424529 0.9476942 0.32857224
0.43550992 -0.48995683 0.08723519 0.25890774 -0.029904779 -0.6133359 -0.5025176 0.17858069
0.21637513 -0.43317574 0.5272985 -0.30664667 -0.008758546 -0.56720966 0.22887515 -0.7501534
0.56588393 1.7496002 0.32890862 -0.0894881 -0.18634045 -0.17613891 -0.11032003 0.004584112
0.13281323 -0.33937895 0.31214574 0.8264087 -2.2418623 -0.18198122 -0.86554015 -0.12327553
0.8204541 0.08451347 -0.13021545 0.37559557 -0.053188443 0.015549215 -0.48403394 -0.088031694
-0.276506 0.15718055 -0.7113637 -0.5880519 -0.22693808 1.153987 -0.37852246 1.303358
0.089145035 -1.1590265 -0.62801033 -0.34699237 0.10726088 0.05404817 0.19487599 0.33744118
-0.6456328 0.6927406 -0.27915332 -0.9345187 1.5049412 0.350118 0.75272846 -0.03683794
0.36980945 0.07278832 0.008330685 0.20640999 0.16497043 0.38770032 -0.62158746 0.874493
0.58868253 -0.47988808 0.9825373 -0.2836094 0.23025425 0.397291 -0.34812498 -0.14361256
00000000: f6d1 0cbe 8b07 f33d 34e7 173e 484d 18be
00000010: b4c4 823f 9ffd 703f 87d9 73bf b216 0abe
00000020: 2dff 203e ccbb 6ebf b243 cfbb df09 7fbf
00000030: 7e4a 38be c016 38bf 969e 753e 95a8 4abf
00000040: f4da b5be 9d05 9a3f a04a 263e bd56 593f
00000050: a380 4cbd 99a1 2d3f 70c0 203f a2b5 d9be
00000060: 64a6 36bf fa78 6f3f e9a3 893f de66 ef3e
00000070: d807 2b3f 9281 bbbf 7bbd 2cbf 9afe 9a3e
00000080: 13dc 8dbe 155b d6be 3ff6 acbe 0992 863f
00000090: caa7 14bb 8c9d acbd 8c0e 743e 03e4 1f3b
000000a0: 19d1 13bf b49d 1f3f 3c99 ae3f 2440 64bd
000000b0: 4026 ba3e 3089 e23e 169c 723f 9f3a a83e
000000c0: 28fb de3e 9fdb fabe 5da8 b23d 8e8f 843e
000000d0: defa f4bc 9503 1dbf fea4 00bf dbdd 363e
000000e0: 7191 5d3e 36c9 ddbe 09fd 063f cb00 9dbe
000000f0: 0180 0fbc a734 11bf 3f5e 6a3e 0e0a 40bf
00000100: c5dd 103f e6f2 df3f b666 a83e 8945 b7bd
00000110: 08d0 3ebe c25d 34be 78ef e1bd 5236 963b
00000120: 3100 083e 14c3 adbe 91d1 9f3e 858f 533f
00000130: ac7a 0fc0 4959 3abe 0a94 5dbf e277 fcbd
00000140: 4809 523f 6615 ad3d 3357 05be 104e c03e
00000150: 20dc 59bd 22c2 7e3c 4cd3 f7be f649 b4bd
00000160: 3292 8dbe f0f3 203e ee1b 36bf 928a 16bf
00000170: 7562 68be d9b5 933f b2cd c1be 6fd4 a63f
00000180: ac91 b63d fb5a 94bf 49c5 20bf fca8 b1be
00000190: 98ab db3d 9d61 5d3d 928d 473e 17c5 ac3e
000001a0: 3148 25bf 7357 313f 2fed 8ebe 9e3c 6fbf
000001b0: eaa1 c03f ab42 b33e d0b2 403f 61e3 16bd
000001c0: aa57 bd3e 0b12 953d 6d7d 083c 245d 533e
000001d0: 02ee 283e a880 c63e 5b20 1fbf c6de 5f3f
000001e0: e6b3 163f e4b3 f5be 9187 7b3f 4035 91be
000001f0: c5c7 6b3e ba69 cb3e 703d b2be 2c0f 13be

decoder.net.2.bias f4 [4]
0.4312591 -0.43258485 -0.70640653 -0.47913656
00000000: fecd dc3e c37b ddbe 0fd7 34bf 6351 f5be
